…
        "    epochs=epochs, batch_size=batch_size,\n",
        "    validation_data=(x_test, y_test))\n",
        "\n",
        "loss_no_aug, acc_no_aug = m_no_aug.evaluate(x_test,  y_test)"
      ],
      "execution_count": 32,
      "outputs": [
        {
          "output_type": "stream",
          "text": [
            "Model: \"sequential_4\"\n",
            "_________________________________________________________________\n",
            "Layer (type)                 Output Shape              Param #   \n",
            "=================================================================\n",
            "conv2d_45 (Conv2D)           (None, 32, 32, 32)        896       \n",
            "_________________________________________________________________\n",
            "conv2d_46 (Conv2D)           (None, 32, 32, 32)        9248      \n",
            "_________________________________________________________________\n",
            "max_pooling2d_18 (MaxPooling (None, 16, 16, 32)        0         \n",
            "_________________________________________________________________\n",
            "conv2d_47 (Conv2D)           (None, 16, 16, 64)        18496     \n",
            "_________________________________________________________________\n",
            "conv2d_48 (Conv2D)           (None, 16, 16, 64)        36928     \n",
            "_________________________________________________________________\n",
            "max_pooling2d_19 (MaxPooling (None, 8, 8, 64)          0         \n",
            "_________________________________________________________________\n",
            "conv2d_49 (Conv2D)           (None, 8, 8, 128)         73856     \n",
            "_________________________________________________________________\n",
            "conv2d_50 (Conv2D)           (None, 8, 8, 128)         147584    \n",
            "_________________________________________________________________\n",
            "max_pooling2d_20 (MaxPooling (None, 4, 4, 128)         0         \n",
            "_________________________________________________________________\n",
            "flatten_4 (Flatten)          (None, 2048)              0         \n",
            "_________________________________________________________________\n",
            "dense_11 (Dense)             (None, 128)               262272    \n",
            "_________________________________________________________________\n",
            "dense_12 (Dense)             (None, 10)                1290      \n",
            "=================================================================\n",
            "Total params: 550,570\n",
            "Trainable params: 550,570\n",
            "Non-trainable params: 0\n",
            "_________________________________________________________________\n",
            "Epoch 1/10\n",
            "1563/1563 [==============================] - 23s 15ms/step - loss: 0.2101 - accuracy: 0.9261 - val_loss: 1.1206 - val_accuracy: 0.7389\n",
…
